app/cat_dog_net.pth (torch, 248823 bytes, 10 tensors)

conv1.weight f4 [6, 3, 5, 5]
0.0036774985 -0.038591623 -0.0063139703 -0.046608485 0.11397964 0.0038811946 0.061943527 0.098568365
-0.09143522 -0.06955596 0.08687389 0.08219337 -0.10989934 0.0842019 0.0030235325 -0.07476856
-0.07722254 -0.010642847 0.06175208 -0.05629214 0.0059613907 -0.0008842702 0.024227558 -0.036186818
0.003574687 -0.09987197 -0.07921606 0.022686996 -0.06869629 0.100284845 -0.108739264 0.09563893
0.038708255 0.0618362 0.004099399 0.10286747 0.002943392 -0.02647423 0.01820088 -0.014528598
0.054927 -0.104742594 -0.066214934 0.005117783 0.06961394 0.031071898 -0.025979552 0.0557214
-0.030214718 -0.110615335 0.08492894 0.032743517 0.10052475 -0.06288864 -0.08686855 0.06772152
0.036692657 -0.036836915 -0.037087042 0.039234396 -0.08876553 0.029292427 -0.07013655 0.073375955
-0.03467643 -0.09681825 -0.029858572 0.069638714 -0.08770013 -0.07011883 -0.06856935 -0.07819326
0.048369594 -0.10985021 0.07375377 -0.03677379 0.06303091 -0.0037745014 -0.054243065 5.9437712e-05
0.06068424 0.088340394 0.07078554 -0.10623681 0.08498335 -0.009406741 -0.06603491 -0.08493235
-0.09034477 -0.09004095 -0.10323815 -0.056789596 -0.033736724 -0.08286417 0.043151766 0.06643738
0.06631529 0.016826723 0.095061444 -0.053752642 -0.11507421 -0.0996126 -0.00033698347 -0.052399892
-0.0074974797 -0.111718275 0.10576589 0.107284866 -0.063122645 0.0009891328 0.057742044 0.07845437
0.016370658 0.0041280305 0.03381867 -0.014836496 -0.038274627 0.002084298 -0.04446006 -0.015665967
0.008241801 0.102802396 0.07124845 -0.08050555 0.059237998 -0.07678075 0.070081115 0.04446654
-0.108480535 0.011549582 0.08024778 0.023711793 0.037803087 -0.104307845 0.07224471 0.023181342
-0.08705048 0.08989736 0.055181794 -0.037405044 -0.046665695 -0.097344354 0.07246932 0.057363864
-0.04656247 0.050387077 -0.0019676664 0.03319277 0.026437642 0.072032094 0.02396799 -0.06162623
-0.0010213844 0.08339555 0.0131215565 -0.01564532 -0.09003054 0.063685656 -0.07388489 0.0004909324
0.08939377 0.08857167 -0.08945086 -0.051496804 0.014680359 0.06974253 -0.030290522 0.024080766
-0.06963826 -0.068948135 0.07667651 0.07966511 -0.036613658 0.064407 0.022172347 0.034439944
-0.055786505 -0.07462862 -0.038970023 0.099226914 0.051338933 -0.039777596 -0.02587092 -0.0440634
0.07167028 -0.04898488 0.088245735 -0.05307192 -0.08446118 -0.11378519 0.025590621 0.09386228
-0.043113515 0.08221175 0.10313731 -0.025849307 0.029186271 0.06613135 -0.09794427 -0.07945735
0.11504961 0.0380555 0.100733064 -0.042194624 0.02655971 -0.11462578 -0.040396173 -0.0506674
-0.06341527 -0.014048361 0.07418891 -0.017758138 -0.038141463 -0.08226765 0.0661781 0.0774787
-0.017886829 -0.06300509 -0.062425718 0.060043957 -0.08335896 -0.05950896 0.062680155 -0.08811023
0.101252824 -0.092667334 -0.01924016 0.014510772 -0.04567019 0.04734521 -0.111285985 -0.10552536
-0.06309707 0.048572063 -0.11110208 0.099493265 -0.0040178685 0.047440063 -0.066632144 -0.007870954
-0.0024803476 -0.06278979 -0.07500216 0.05051714 -0.015850956 0.061266076 -0.010652716 -0.040661246
-0.05127754 0.0118349185 -0.06676419 -0.11289299 0.102694124 0.047640152 0.10824285 0.018647682
00000000: 3002 713b 4012 1ebd 6ce5 cebb 8ae8 3ebd
00000010: 286e e93d a45b 7e3b 7fb8 7d3d 36de c93d
00000020: 6342 bbbd 5b73 8ebd f0ea b13d ff54 a83d
00000030: e812 e1bd 0c72 ac3d 7526 463b 4220 99bd
00000040: da26 9ebd 565f 2ebc c0ef 7c3d 9692 66bd
00000050: c557 c33b 5ece 67ba df78 c63c a138 14bd
00000060: 4c45 6a3b ad89 ccbd 083c a2bd 14da b93c
00000070: a4b0 8cbd 2462 cd3d b1b2 debd 58de c33d
00000080: 8c8c 1e3d f547 7d3d 4054 863b 2eac d23d
00000090: ece5 403b 7ce0 d8bc 031a 953c 5b09 6ebc
000000a0: 22fb 603d 4983 d6bd b29b 87bd 13b3 a73b
000000b0: c191 8e3d 7e8a fe3c 12d3 d4bc 1f3c 643d
000000c0: db84 f7bc 4b8a e2bd 39ef ad3d 111e 063d
000000d0: ecdf cd3d c2cb 80bd 23e8 b1bd 95b1 8a3d
000000e0: 0a4b 163d 4ee2 16bd 95e8 17bd 3fb4 203d
000000f0: b4ca b5bd acf6 ef3c c0a3 8fbd 2246 963d
00000100: df08 0ebd a648 c6bd f799 f4bc be9e 8e3d
00000110: 209c b3bd 769a 8fbd 166e 8cbd ca23 a0bd
00000120: 321f 463d 26f9 e0bd 370c 973d 1da0 16bd
00000130: 5a16 813d a05d 77bb fa2d 5ebd c24c 7938
00000140: 0a90 783d cfeb b43d 02f8 903d af92 d9bd
00000150: c00b ae3d bb1e 1abc 503d 87bd 03f1 adbd
00000160: ae06 b9bd 6467 b8bd 866e d3bd 359c 68bd
00000170: 852f 0abd b1b4 a9bd e8bf 303d 5210 883d
00000180: 50d0 873d 32d8 893c 93af c23d bb2b 5cbd
00000190: 07ac ebbd b101 ccbd 28ad b0b9 45a1 56bd
000001a0: 6bad f5bb 8dcc e4bd c99b d83d 2bb8 db3d
000001b0: 7246 81bd caa5 813a ec82 6c3d afac a03d
000001c0: c21b 863c 6e44 873b 7285 0a3d c614 73bc
000001d0: dbc5 1cbd b898 083b c01b 36bd ea55 80bc
000001e0: 9e08 073c 108a d23d b5ea 913d 18e0 a4bd
000001f0: 8ba3 723d 3a3f 9dbd b086 8f3d 8c22 363d
00000200: 0b2b debd 753a 3d3c f358 a43d 3c3f c23c
00000210: 69d7 1a3d 5a9f d5bd 09f5 933d cce6 bd3c
00000220: 8647 b2bd 1b1c b83d 4e06 623d 0836 19bd
00000230: 8724 3fbd 7a5c c7bd cb6a 943d 5ff6 6a3d
00000240: 4ab8 3ebd ae62 4e3d f7f3 00bb 24f5 073d
00000250: c193 d83c 9085 933d 8558 c43c c96b 7cbd
00000260: f9df 85ba 49cb aa3d ccfb 563c 9d2a 80bc
00000270: ef61 b8bd a06d 823d f650 97bd eab1 003a
00000280: 1514 b73d 1065 b53d 0332 b7bd 50ee 52bd
00000290: e385 703c 2cd5 8e3d d423 f8bc 0745 c53c
000002a0: 819e 8ebd ae34 8dbd 9308 9d3d 7627 a33d
000002b0: 34f8 15bd d1e7 833d c8a2 b53c e610 0d3d
000002c0: 6480 64bd e4d6 98bd 089f 1fbd 7b37 cb3d
000002d0: c648 523d d5ed 22bd 40ef d3bc d37b 34bd
000002e0: dec7 923d 5fa4 48bd 2eba b43d f161 59bd
000002f0: fcf9 acbd 3608 e9bd 6ca3 d13c de3a c03d
00000300: cc97 30bd a25e a83d a739 d33d edc1 d3bc
00000310: 0c18 ef3c e06f 873d 0197 c8bd 89ba a2bd
00000320: 219f eb3d 15e0 1b3d 234d ce3d 45d4 2cbd
00000330: c093 d93c ecc0 eabd 7576 25bd 9f88 4fbd
00000340: dddf 81bd 192b 66bc 5bf0 973d 8479 91bc
00000350: 393a 1cbd f17b a8bd 6288 873d 27ad 9e3d
00000360: 6687 92bc d008 81bd 1cb2 7fbd a7f0 753d
00000370: 1ab8 aabd abbf 73bd 745e 803d 2373 b4bd
00000380: a45d cf3d 5fc8 bdbd 8a9d 9dbc 97be 6d3c
00000390: aa10 3bbd 0ded 413d e8e9 e3bd ae1d d8bd
000003a0: 0939 81bd 80f3 463d 7d89 e3bd 20c3 cb3d
000003b0: 53a8 83bb 8350 423d 6f76 88bd 2df5 00bc
000003c0: 548d 22bb ef97 80bd bc9a 99bd 10eb 4e3d
000003d0: ddd9 81bc 23f2 7a3d bb88 2ebc 688c 26bd
000003e0: 6608 52bd 3fe7 413c aabb 88bd 7134 e7bd
000003f0: 4c51 d23d 5222 433d 6dae dd3d 06c3 983c

conv1.bias f4 [6]
0.020007852 0.03311285 0.11164243 -0.10749432 -0.07396981 0.0119399605
00000000: 82e7 a33c 57a1 073d c9a4 e43d fb25 dcbd
00000010: 7c7d 97bd d39f 433c

conv2.weight f4 [16, 6, 5, 5]
-0.07751553 0.03135585 -8.280202e-05 -0.060691923 0.016211987 -0.011347575 0.038131326 0.060818523
-0.060870472 0.058293145 0.012329072 0.036360208 -0.00029675185 0.0029104417 0.065036826 0.002374696
-0.05313966 -0.047226388 -0.04741982 0.023112547 -0.021990083 -0.04333921 -0.07065593 -0.07189042
0.028791556 0.00075147673 0.020949038 -0.034392048 -0.06683064 0.025632622 -0.07520651 -0.07696719
-0.07225473 -0.044034 -0.05145518 0.054990683 -0.03587505 -0.01715055 0.07290763 -0.055824943
0.040290136 0.050936684 0.06298267 -0.0040516243 0.05466798 -0.066562474 -0.070935294 0.012801385
0.07577752 0.052556515 0.027479816 0.051337775 -0.041276675 -0.06320004 -0.078077264 -0.06478308
-0.029251179 -0.063813455 -0.024102123 -0.04221517 -0.079058215 -0.029889552 0.011642653 0.009540667
0.04628224 -0.06296503 0.02710071 -0.008568846 0.04608209 0.043955278 -0.05601954 -0.07340469
0.022418585 -0.032492254 -0.05209514 0.013566478 -0.0279933 0.021679966 0.058793608 -0.016450942
-0.010055515 -0.0040700496 -0.06951058 0.07838004 0.05718752 0.07217378 0.03683985 -0.07475725
0.005624629 -0.0012438991 0.010485731 0.028547512 -0.008690873 -0.02232238 0.018842252 0.05976574
-0.05648139 0.018950693 -0.075524524 -0.0047623864 -0.031777687 0.07295693 0.077269085 -0.030918315
0.07296393 0.03182032 -0.009346972 -0.06560491 -0.06686157 0.04549993 0.045362726 0.06289278
0.0014249792 -0.041999925 0.0076482124 -0.005637302 -0.042470377 0.03941116 -0.017247377 -0.012952506
0.03374253 -0.07074866 0.071752146 0.04427756 0.018688874 -0.07440952 0.03659527 -0.014453892
-0.0792747 0.065231435 0.0028806478 -0.023178082 0.061614532 -0.047960043 -0.01676201 -0.03760252
-0.050369684 -0.0042162063 0.0034038278 -0.0011405401 0.025823338 -0.017692368 0.035642255 -0.057463996
0.055655036 0.07403635 -0.027055254 0.07393837 -0.046089754 0.031991743 0.03225788 -0.041405562
-0.07968338 -0.020132367 -0.02664112 0.0568837 0.07006076 -0.07460845 -0.07708042 0.055117838
-0.042265333 0.063736595 -0.07123292 -0.047582544 -0.00856871 0.06522805 -0.013922118 0.049445372
-0.036521588 0.07951771 0.050491758 -0.06259918 -0.035849515 0.03595571 -0.017339796 -0.049109083
-0.038957343 0.07336587 -0.015183031 0.031471696 0.07323366 -0.010019813 0.04471958 -0.040913045
0.020158451 -0.056587502 0.020761494 -0.0037570528 0.019608252 0.059145734 -0.03585817 0.04907923
-0.069835834 -0.0011487162 -0.060459293 0.0013995166 -0.07878678 -0.04653266 -0.002552467 -0.033817884
0.02809088 -0.0013227883 -0.03631224 -0.03391585 0.027123623 -0.07771553 0.058115143 -0.046466075
0.009850296 -0.0003229055 0.024877612 -0.012203209 -0.02077185 -0.0018892526 0.05390609 -0.016304221
0.05046985 -0.0043227384 0.04272539 -0.035588767 -0.062339183 0.031110695 0.06996028 0.08112264
-0.020355573 -0.058500722 -0.05676843 0.062759176 0.07904449 0.05067499 0.012166641 -0.03970947
-0.071668364 -0.053459425 0.048823755 0.029275112 0.048163373 0.04970166 0.04082669 0.002789553
-0.020171368 0.025681688 0.015579705 -0.02001796 -0.0005515041 -0.022738328 -0.04302332 -0.050264698
0.012029945 0.060683757 0.066883124 -0.025972394 -0.050676316 0.0629771 -0.055885784 -0.012970142
00000000: 76c0 9ebd fe6e 003d ffa5 adb8 1898 78bd
00000010: 00cf 843c 2eeb 39bc 982f 1c3d d81c 793d
00000020: 5153 79bd cbc4 6e3d e0ff 493c 71ee 143d
00000030: 5c95 9bb9 1cbd 3e3b 0732 853d caa0 1b3b
00000040: f9a8 59bd 7570 41bd 493b 42bd 8656 bd3c
00000050: 8c24 b4bc 7584 31bd 0eb4 90bd 493b 93bd
00000060: 45dc eb3c c0fe 443a 519d ab3c adde 0cbd
00000070: 81de 88bd 81fb d13c df05 9abd f9a0 9dbd
00000080: 4afa 93bd ff5c 34bd abc2 52bd e93d 613d
00000090: b7f1 12bd 4f7f 8cbc 9850 953d b2a8 64bd
000000a0: 4507 253d fca2 503d 0ffd 803d 7dc3 84bb
000000b0: 88eb 5f3d e851 88bd 8646 91bd e6bc 513c
000000c0: 3f31 9b3d 8045 573d 5a1d e13c 8f47 523d
000000d0: bb11 29bd 066f 81bd f9e6 9fbd feac 84bd
000000e0: 2ba0 efbc a1b0 82bd d171 c5bc d0e9 2cbd
000000f0: 46e9 a1bd efda f4bc d3c0 3e3c 7550 1c3c
00000100: 7292 3d3d cff3 80bd 4f02 de3c 5864 0cbc
00000110: 93c0 3c3d 730a 343d bf74 65bd 3355 96bd
00000120: 2ea7 b73c 9916 05bd b761 55bd ef45 5e3c
00000130: 3552 e5bc 2f9a b13c 91d1 703d 20c4 86bc
00000140: e3bf 24bc 0d5e 85bb 905b 8ebd b785 a03d
00000150: 763d 6a3d d9cf 933d 62e5 163d 541a 99bd
00000160: cf4e b83b 540a a3ba 58cc 2b3c 79dc e93c
00000170: 2a64 0ebc 6ddd b6bc 115b 9a3c eccc 743d
00000180: 0859 67bd 7c3e 9b3c 9aac 9abd cb0d 9cbb
00000190: 5229 02bd 716a 953d 413f 9e3d 6848 fdbc
000001a0: 1d6e 953d 0656 023d 0b24 19bc de5b 86bd
000001b0: b8ee 88bd 225e 3a3d 44ce 393d eecd 803d
000001c0: 5ec6 ba3a 1d08 2cbd db9d fa3b 1eb9 b8bb
000001d0: 6bf5 2dbd 996d 213d 5f4a 8dbc bf36 54bc
000001e0: 9b35 0a3d ace4 90bd caf2 923d 635c 353d
000001f0: 6919 993c 0564 98bd ece4 153d 04d0 6cbc
00000200: c65a a2bd 0f98 853d 40c9 3c3b f6df bdbc
00000210: 855f 7c3d c071 44bd 7c50 89bc 1a05 1abd
00000220: 7150 4ebd 1a28 8abb c112 5f3b 2d7e 95ba
00000230: 778b d33c 96ef 90bc 9dfd 113d 5e5f 6bbd
00000240: 89f6 633d 5fa0 973d fba2 ddbc 006d 973d
00000250: 9cc8 3cbd c609 033d d720 043d e198 29bd
00000260: 0a31 a3bd a2ec a4bc 7a3e dabc e2fe 683d
00000270: 047c 8f3d 51cc 98bd 57dc 9dbd 3ec3 613d
00000280: 6a1e 2dbd 5588 823d 91e2 91bd eae5 42bd
00000290: c663 0cbc 4996 853d 9819 64bc 3b87 4a3d
000002a0: a997 15bd 2eda a23d 72d0 4e3d 0034 80bd
000002b0: f1d6 12bd 4b46 133d 300c 8ebc 9b26 49bd
000002c0: bc91 1fbd d840 963d 3fc2 78bc 77e8 003d
000002d0: 87fb 953d 242a 24bc e12b 373d 7094 27bd
000002e0: 5623 a53c 4cc8 67bd 0214 aa3c e338 76bb
000002f0: 7ca1 a03c cc42 723d 04e0 12bd 4d07 493d
00000300: 1706 8fbd 8590 96ba 2aa4 77bd fc6f b73a
00000310: f75a a1bd 0899 3ebd 4a47 27bb 9f84 0abd
00000320: d81e e63c 6961 adba 25bc 14bd 59eb 0abd
00000330: 5c32 de3c 5229 9fbd 250a 6e3d 3653 3ebd
00000340: 2363 213c a44b a9b9 22cc cb3c f8ef 47bc
00000350: ba29 aabc cca0 f7ba a2cc 5c3d 6e90 85bc
00000360: 79b9 4e3d c2a5 8dbb d200 2f3d 87c5 11bd
00000370: 5f57 7fbd dbdb fe3c 5647 8f3d a023 a63d
00000380: bbc0 a6bc 749e 6fbd 0386 68bd e287 803d
00000390: 14e2 a13d 9490 4f3d 9756 473c 66a6 22bd
000003a0: ddc6 92bd 45f8 5abd 6bfb 473d 5cd2 ef3c
000003b0: f546 453d f893 4b3d e339 273d efd0 363b
000003c0: 6d3e a5bc 6762 d23c 0542 7f3c b4fc a3bc
000003d0: d092 10ba bb45 babc 3939 30bd 5be2 4dbd
000003e0: 3f19 453c 888f 783d 05fa 883d 0fc4 d4bc
000003f0: f891 4fbd 23fa 803d 7ee8 64bd b880 54bc

conv2.bias f4 [16]
0.018937154 0.06568722 -0.053899635 0.047367144 -0.041929495 -0.020097481 -0.057871602 -0.054225627
0.046669472 -0.023511149 -0.028032236 -0.017526064 -0.00952705 -0.08107498 0.03618628 -0.07727428
00000000: 1722 9b3c 0587 863d ddc5 5cbd 0d04 423d
00000010: 43be 2bbd 79a3 a4bc c60a 6dbd b11b 5ebd
00000020: 7d28 3f3d 749a c0bc dca3 e5bc d292 8fbc
00000030: 5817 1cbc a40a a6bd 1138 143d fa41 9ebd

fc1.weight f4 [120, 400]
0.025764704 -0.039755058 -0.035540935 -0.01947301 0.007547438 -0.00830158 0.015458482 0.04165989
0.0431115 -0.018279308 -0.04979233 -0.040089577 0.049026735 0.044130206 0.00148834 -0.0047968687
0.016193843 0.0027163387 -0.039444037 0.015183187 -0.0060521066 0.033190913 -0.02126742 -0.005947131
0.0043180822 0.03305739 -0.006940198 -0.03389147 0.030838002 0.04748292 -0.043061834 0.0033406138
0.025474954 -0.045342665 -0.020338481 0.0102841975 -0.025616933 0.028740048 -0.00059322716 -0.022828598
0.004583067 0.0015410185 -0.03176896 0.0007478118 -0.0035581829 0.0032902658 0.007759583 0.03282244
-0.028628414 0.04127558 -0.016097927 -0.003995484 0.025646223 -0.013588714 0.014278102 0.024234349
0.03272299 -0.0067349137 0.039475318 -0.036102224 -0.00036256315 -0.03854846 0.010146505 -0.034325898
0.0015868366 0.020502442 -0.03242452 -0.02536326 0.03865207 -0.015689945 0.042289563 -0.0342457
0.047327496 0.00538311 0.030824209 -0.029870385 -0.03565913 -0.04241208 -0.01987548 0.047258586
-0.009185898 0.014463723 0.005097681 0.03368295 -0.00036777856 0.043478977 0.005917698 -0.03967918
0.023765355 0.01880077 -0.022170508 0.00604161 0.03725939 0.04561047 -0.041135103 0.04973451
0.016349524 0.025412703 -0.028012682 0.0051789167 -0.00921374 0.022250688 -0.046073914 -0.018639494
0.0466686 -0.039220493 -0.001273185 0.020328438 0.037369665 -0.0014091313 0.002415824 -0.041664284
0.039683282 -0.009704918 -0.042500246 -0.041912217 0.043324776 -0.012547761 0.027481377 -0.016297508
0.006428194 -0.017081244 0.046405908 -0.016156768 0.0016113281 0.036414634 0.0182984 0.04458728
-0.021978337 -0.033628512 0.013201475 0.019300198 -0.014070398 -0.045488358 -0.019412613 -0.018060107
0.0022835552 -0.0055746734 -0.036878284 0.01987263 -0.032468934 0.022126967 0.031140536 -0.03244529
-0.015005506 -0.029022146 0.031420525 -0.005634904 0.0470135 -0.008290338 -0.024993503 0.0011134148
0.007900733 0.01185053 0.0057073 0.03591281 -0.0022092343 -0.043277383 -0.002461827 0.049947392
-0.017076809 -0.007032496 0.01573754 0.038781416 0.02314639 0.027904635 -0.04967118 0.02765069
0.048733234 -0.043210864 0.043089926 0.0003275931 0.026754325 -0.0006855488 0.04609527 -0.039797097
0.013166196 0.014659769 0.046822637 0.024872882 -0.015282291 -0.028839517 0.037942708 0.02578711
0.000982666 -0.0035532415 -0.015196162 -0.049333643 -0.013466514 0.036872394 0.01471684 0.04975876
0.018903304 -0.039705195 0.013496965 0.018290753 -0.030167533 0.023918336 -0.021732545 0.001637429
0.04793173 0.045661118 0.042344034 -0.015222388 -0.002100593 -0.005030376 0.0028462054 -0.029734684
0.0050064027 -0.023644412 0.036792386 -0.033934142 0.037165046 -0.047963984 -0.017961545 -0.023391003
-0.022369612 0.0064165117 0.04948315 0.041350525 -0.016107107 -0.0140666785 -0.032354176 -0.0273189
-0.027789587 -0.007721615 0.03919505 0.030408502 -0.03009187 -0.031350702 0.035244744 0.0034484447
0.0053005754 -0.027331674 -0.04939101 0.025012685 0.037590064 0.035750818 0.033341516 -0.04608054
0.041071184 0.044275623 -0.03187854 -0.04516573 0.043839592 0.01108399 0.01851263 0.006141496
-0.04812271 -0.049660277 -0.048253864 0.030001534 0.03626288 0.0330051 0.023300791 -0.006994331
00000000: 8010 d33c 33d6 22bd 5f93 11bd dd85 9fbc
00000010: 8050 f73b 5a03 08bc 9345 7d3c 90a3 2a3d
00000020: af95 303d 7dbe 95bc 0bf3 4bbd f834 24bd
00000030: 42d0 483d e0c1 343d 6714 c33a 0d2f 9dbb
00000040: f3a8 843c 9a04 323b 1290 21bd e7c2 783c
00000050: c050 c6bb 32f3 073d 0339 aebc 27e0 c2bb
00000060: b37e 8d3b 3067 073d 9a6a e3bb c8d1 0abd
00000070: fa9f fc3c 737d 423d 9b61 30bd 33ee 5a3b
00000080: dab0 d03c 3bb9 39bd e39c a6bc 0d7f 283c
00000090: 9ada d1bc 4070 eb3c cd82 1bba 0a03 bbbc
000000a0: 8d2d 963b 00fc c93a 2b20 02bd cd08 443a
000000b0: 6730 69bb 80a1 573b 1a44 fe3b d370 063d
000000c0: 2386 eabc 9510 293d cddf 83bc 8dec 82bb
000000d0: 0718 d23c 33a3 5ebc b3ee 693c 1d87 c63c
000000e0: 8b08 063d 8db0 dcbb dfb0 213d eddf 13bd
000000f0: 6716 beb9 fde4 1dbd 873d 263c 5099 0cbd
00000100: 67fd cf3a bdf4 a73c 93cf 04bd 9dc6 cfbc
00000110: a251 1e3d 3388 80bc d237 2d3d 3845 0cbd
00000120: 7ada 413d cd64 b03b 0d83 fc3c bdb2 f4bc
00000130: 4f0f 12bd 4ab8 2dbd e7d1 a2bc 3892 413d
00000140: 7380 16bc 40f9 6c3c 730a a73b 22f7 093d
00000150: 67d2 c0b9 0317 323d 40e9 c13b a386 22bd
00000160: 90af c23c 1304 9a3c ed9e b5bc b3f8 c53b
00000170: 4d9d 183d 0bd2 3a3d 487d 28bd 6ab6 4b3d
00000180: 70ef 853c 4d2e d03c da7a e5bc e7b3 a93b
00000190: 3af5 16bc 1347 b63c 00b8 3cbd dab1 98bc
000001a0: 9327 3f3d aba5 20bd 00e1 a6ba d387 a63c
000001b0: ef10 193d 9ab2 b8ba cd52 1e3b 2ba8 2abd
000001c0: f08a 223d 6001 1fbc bd14 2ebd 25ac 2bbd
000001d0: 5275 313d 2095 4dbc a020 e13c 5a82 85bc
000001e0: 9aa3 d23b f7ed 8bbc 1f14 3e3d 335b 84bc
000001f0: 3333 d33a 8327 153d 87e6 953c 27a1 363d
00000200: ea0b b4bc 0dbe 09bd 004b 583c 731b 9e3c
00000210: 8787 66bc 0052 3abd 3307 9fbc caf2 93bc
00000220: b3a7 153b c0ab b6bb af0d 17bd edcb a23c
00000230: 25fe 04bd 9d43 b53c 701a ff3c 5ae5 04bd
00000240: a7d9 75bc dabf edbc cfb2 003d 00a5 b8bb
00000250: 3a91 403d 33d4 07bc 2dbf ccbc 00f0 913a
00000260: 1372 013c ba28 423c 4d04 bb3b 5019 133d
00000270: cdc8 10bb a043 31bd 9a56 21bb a395 4c3d
00000280: aae4 8bbc da70 e6bb 03ec 803c 43d9 1e3d
00000290: 809d bd3c 4398 e43c 0274 4bbd b383 e23c
000002a0: 809c 473d e0fd 30bd 107f 303d cdc0 ab39
000002b0: e32b db3c 67b6 33ba 65ce 3c3d 4802 23bd
000002c0: 07b7 573c 872f 703c 18c9 3f3d 37c2 cb3c
000002d0: 9362 7abc da40 ecbc d069 1b3d 7d3f d33c
000002e0: cdcc 803a 80dd 68bb 53f9 78bc 1312 4abd
000002f0: a7a2 5cbc 8207 173d e71e 713c d7cf 4b3d
00000300: 1adb 9a3c eaa1 22bd 6022 5d3c 7dd6 953c
00000310: e721 f7bc 63f0 c33c 7308 b2bc 009f d63a
00000320: 1054 443d 2707 3b3d f070 2d3d 5367 79bc
00000330: 1aaa 09bb dad5 a4bb 6787 3a3b 2796 f3bc
00000340: c00c a43b edb1 c1bc 9db3 163d 87fe 0abd
00000350: 603a 183d e275 44bd 1724 93bc 7d9e bfbc
00000360: 7a40 b7bc 9a41 d23b d8ae 4a3d 2b5f 293d
00000370: 0df3 83bc ed77 66bc d085 04bd e3cb dfbc
00000380: fda6 e3bc 9a05 fdbb fd8a 203d 401b f93c
00000390: 3a83 f6bc 9869 00bd cb5c 103d 4dff 613b
000003a0: 73b0 ad3b ade6 dfbc 3a4e 4abd 67e7 cc3c
000003b0: 0af8 193d 736f 123d 1d91 083d f3be 3cbd
000003c0: 423a 283d 5b5a 353d 1293 02bd b3ff 38bd
000003d0: 2591 333d a099 353c cda7 973c 9a3e c93b
000003e0: 521c 45bd 9368 4bbd d8a5 45bd c7c5 f53c
000003f0: 6388 143d 5b30 073d 4de1 be3c b330 e5bb

fc1.bias f4 [120]
-0.032189917 -0.028302932 0.0018244982 -0.020487642 -0.008624709 -0.002462536 0.030370211 0.0017078519
0.00030728578 0.010343188 -0.049665667 0.035985608 -0.049037505 0.030675674 0.0372924 -0.014181989
0.04976315 -0.03966986 -0.00072076323 0.008617252 -0.001109457 -0.005053246 0.0033801794 0.020329619
-0.015760535 0.019668031 0.033535272 -0.043404963 0.0045356094 -0.015216017 0.011799711 0.0068853796
-0.04227556 0.016569829 -0.025295341 0.03634417 0.04395671 -0.009568906 -0.023893267 0.006206715
0.016239226 -0.020228995 -0.032743033 -0.010332966 -0.0048704864 -0.04248592 0.032106932 0.03388516
0.009365613 -0.012226987 0.0126764355 -0.039229747 -0.020639468 0.02835821 0.03700143 -0.042766538
0.046851553 -0.040185034 0.02467419 -0.025084812 -0.021634638 -0.04305467 0.011914402 -0.0151859345
-0.039314505 -0.016445352 -0.02885527 -0.042744763 0.009922749 0.019229734 0.0071934583 0.02450719
0.0013432205 -0.02541303 0.036189735 0.04209867 0.0002098322 -0.00031155348 0.025294526 0.0107994145
-0.021980911 0.0056957426 0.027954264 0.016647076 0.01260469 -0.013875849 -0.042690326 0.0044508814
-0.023818577 -0.049634244 -0.013357753 0.029282957 -0.047912013 0.04456864 -0.01571973 -0.033566166
-0.010006207 -0.016896827 0.045831185 -0.031467628 0.036001053 -0.026305115 -0.01164403 -0.03197624
-0.003653592 -0.03996841 -0.017801065 -0.049238592 -0.011633337 -0.028856313 0.0031763853 -0.017400367
-0.048341107 -0.010763156 0.0045363903 0.008131999 0.024250938 -0.022756351 -0.014204758 0.012626439
00000000: 93d9 03bd 8ddb e7bc 0024 ef3a b3d5 a7bc
00000010: a74e 0dbc 8062 21bb f3ca f83c 00da df3a
00000020: 331b a139 7a76 293c 3a6e 4bbd a565 133d
00000030: 8ddb 48bd 8d4b fb3c eabf 183d 935b 68bc
00000040: 72d4 4b3d dd7c 22bd 9af1 3cba 602f 0d3c
00000050: 336b 91ba b395 a5bb 0086 5d3b 4d8a a63c
00000060: 3d1c 81bc da1e a13c 485c 093d 67c9 31bd
00000070: 739f 943b 9a4c 79bc 9353 413c c09e e13b
00000080: 2329 2dbd 73bd 873c 2d38 cfbc a0dd 143d
00000090: f30b 343d e7c6 1cbc d0bb c3bc b361 cb3b
000000a0: 2008 853c 47b7 a5bc 8f1d 06bd 9a4b 29bc
000000b0: 9a98 9fbb b705 2ebd 8f82 033d 2acb 0a3d
000000c0: 3a72 193c b353 48bc d3b0 4f3c 5faf 20bd
000000d0: 1a14 a9bc 7a4f e83c d08e 173d f72b 2fbd
000000e0: 6ae7 3f3d 1099 24bd 8721 ca3c aa7e cdbc
000000f0: 203b b1bc 185a 30bd a034 433c 6dce 78bc
00000100: 3f08 21bd 67b8 86bc e361 ecbc 2215 2fbd
00000110: 0793 223c ad87 9d3c 1ab7 eb3b 4dc3 c83c
00000120: 000f b03a fd2e d0bc b03b 143d a86f 2c3d
00000130: 6706 5c39 0058 a3b9 7736 cf3c 07f0 303c
00000140: 5011 b4bc 5aa3 ba3b 5700 e53c 735f 883c
00000150: e783 4e3c 8757 63bc 0ddc 2ebd b3d8 913b
00000160: 2d1f c3bc 474d 4bbd 7ada 5abc d0e2 ef3c
00000170: 633f 44bd 9b8d 363d aac6 80bc ad7c 09bd
00000180: 13f1 23bc 376b 8abc 7bb9 3b3d 33e4 00bd
00000190: d775 133d d37d d7bc 9ac6 3ebc 85f9 02bd
000001a0: 1a71 6fbb eab5 23bd 8ad3 91bc 68ae 49bd
000001b0: c099 3ebc 1364 ecbc e72a 503b 378b 8ebc
000001c0: 5301 46bd f357 30bc 00a6 943b 133c 053c
000001d0: e7a9 c63c 876b babc 13bb 68bc 20df 4e3c

fc2.weight f4 [84, 120]
0.07761652 0.0010343379 -0.07404292 0.06320839 -0.018508367 -0.07686877 0.036152467 0.05309595
0.062223226 -0.02576128 -0.00081472285 -0.08150749 -0.012602233 0.022909964 0.015496547 0.030921815
0.018418655 0.047975596 -0.07635293 0.07232959 0.063296445 -0.037740666 -0.023675345 0.07665746
-0.08163665 -0.07034748 0.076397315 -0.07808713 -0.013982715 0.07655584 -0.015865456 0.07854344
0.021497248 0.010801338 0.05559547 -0.09074578 0.047412753 -0.034981217 0.08142293 0.042133152
-0.017472703 -0.0032396624 0.013019079 -0.044203527 -0.022236634 -0.0786308 0.016264008 0.042202312
-0.07665907 0.08462784 -0.027868796 0.0121640265 0.051006798 -0.04405418 0.029652508 -0.04439718
-0.002806548 -0.024769742 0.011102929 -0.06582926 0.010947172 -0.04444803 0.031631004 -0.051682323
0.013916997 -0.02821582 -0.003614339 0.02041184 -0.012512966 0.06273512 -0.07474976 0.06454461
0.07886523 -0.085612595 -0.00679626 -0.0068176766 0.07971286 -0.023892164 0.024704035 -0.040982418
0.040935833 -0.07947616 0.04463242 -0.08013461 0.08658868 -0.061869554 0.03831278 0.048225526
-0.052638147 0.040819578 -0.054225184 0.008905581 0.07311377 -0.07236642 -0.08759921 8.98549e-05
0.02817857 -0.08668997 -0.08851506 0.059277613 -0.015518486 0.06831213 -0.006641939 -0.032295592
0.04438119 0.008048635 -0.015376538 0.017248996 -0.043051902 -0.06917699 0.026712826 -0.07433628
-0.06588875 -0.06975121 0.028609617 -0.07369187 0.032007005 0.06527699 0.049596857 -0.07097053
0.066707455 0.061750893 -0.04705824 -0.061747704 0.06455853 -0.018348876 -0.033408392 -0.047923457
-0.033593763 -0.07351928 -0.01587378 0.04364408 0.06213904 0.0872294 -0.051549103 -0.07837952
0.0005405767 -0.024206726 -0.006467115 0.036828026 -0.052730568 0.084822066 0.002639538 0.065239795
0.041230448 -0.015398879 -0.05781109 0.060316958 0.06289235 0.02325332 -0.046545774 -0.09069189
0.051809613 0.03286407 -0.017093444 0.017829053 -0.04513231 -0.05352946 0.04834693 -0.045619246
-0.017336326 0.07404445 -0.04119065 -0.03297507 -0.06384867 0.036245946 0.05169939 -0.0037567988
-0.07988372 0.03153462 0.025053998 -0.037491072 0.0819925 0.049709357 0.023458092 0.028573966
0.055090226 0.0029124108 0.084377505 -0.07775183 0.035525136 0.0060415966 0.001465069 0.06509518
0.01679269 0.030714259 -0.018508215 -0.057591308 -0.04898672 0.08530328 -0.075231425 -0.037527714
0.034849446 -0.05578422 -0.075323746 -0.080522805 0.05140536 0.040208515 0.06053444 0.08971954
0.026601642 -0.075050026 0.06479623 0.051711228 0.026154011 -0.07417527 0.06372189 0.025775775
0.083287 -4.0743216e-05 0.06946688 -0.00025566804 -0.06758216 0.052719045 -0.004381289 -0.077127896
-0.0527274 0.08939945 -0.005136616 -0.018383352 -0.061185267 -0.061053254 -0.06415475 -0.05327615
0.08239752 -0.041524705 -0.010500062 0.009162881 0.0649584 -0.07089393 0.05731441 0.038083024
-0.037463073 0.058409013 0.024556026 -0.06438057 -0.049376838 -0.025435563 0.05888558 0.069841556
-0.01828204 -0.042014994 0.03424513 0.053394582 -0.09091631 0.052062616 0.06801168 -0.056664366
-0.004560879 0.0727328 0.013051236 0.06633013 0.03929114 -0.03178346 0.07157811 -0.067485675
00000000: 69f5 9e3d 9f92 873a d0a3 97bd 6673 813d
00000010: dc9e 97bc 606d 9dbd 9c14 143d 247b 593d
00000020: c8dd 7e3d 5209 d3bc 2093 55ba 66ed a6bd
00000030: 9979 4ebc adad bb3c 3be5 7d3c bf4f fd3c
00000040: b8e2 963c 0f82 443d ed5e 9cbd 8921 943d
00000050: 91a1 813d f595 1abd ccf2 c1bc 96fe 9c3d
00000060: 1e31 a7bd 5712 90bd 3276 9c3d 25ec 9fbd
00000070: c217 65bc 4fc9 9c3d 46f8 81bc 62db a03d
00000080: ff1a b03c 18f8 303c 13b8 633d ecd8 b9bd
00000090: e033 423d 7748 0fbd 11c1 a63d d093 2c3d
000000a0: ea22 8fbc 8450 54bb fa4d 553c c20e 35bd
000000b0: 9a29 b6bc 2f09 a1bd 193c 853c 55dc 2c3d
000000c0: 6eff 9cbd 5c51 ad3d 1a4d e4bc a04b 473c
000000d0: 81ec 503d 2872 34bd d1e9 f23c d1d9 35bd
000000e0: 10ee 37bb eae9 cabc 0fe9 353c 7ed1 86bd
000000f0: c45b 333c 230f 36bd 838f 013d d8b0 53bd
00000100: 1e04 643c dd24 e7bc 8cde 6cbb bb36 a73c
00000110: 2f03 4dbc 457b 803d 6716 99bd f72f 843d
00000120: 1884 a13d a855 afbd 29b3 debb d166 dfbb
00000130: 7f40 a33d 80b9 c3bc 1e60 ca3c 2edd 27bd
00000140: 55ac 273d 66c4 a2bd 7cd0 363d 9d1d a4bd
00000150: 6855 b13d ee6a 7dbd dded 1c3d 2188 453d
00000160: 199b 57bd 6e32 273d 3a1b 5ebd b7e8 113c
00000170: acbc 953d d834 94bd 3767 b3bd 7b70 bc38
00000180: bfd6 e63c 838a b1bd 6247 b5bd 15cd 723d
00000190: 3f41 7ebc 3be7 8b3d 9fa4 d9bb 6248 04bd
000001a0: 0dc9 353d 6cde 033c e0ed 7bbc c44d 8d3c
000001b0: 3157 30bd aaac 8dbd dbd4 da3c 9f3d 98bd
000001c0: aef0 86bd b9d9 8ebd b75e ea3c c3eb 96bd
000001d0: c719 033d f1af 853d 1326 4b3d ff58 91bd
000001e0: eb9d 883d 81ee 7c3d 24c0 40bd 29eb 7cbd
000001f0: 4337 843d 6250 96bc 3dd7 08bd 634b 44bd
00000200: 9d99 09bd 4791 96bd bb09 82bc 23c4 323d
00000210: 8285 7e3d 54a5 b23d 2725 53bd 7185 a0bd
00000220: 7db5 0d3a 2f4d c6bc 18ea d3bb fcd8 163d
00000230: 02fc 57bd 31b7 ad3d 19fc 2c3b 719c 853d
00000240: 42e1 283d 944b 7cbc 52cb 6cbd ea0e 773d
00000250: b4cd 803d bf7d be3c c8a6 3ebd abbc b9bd
00000260: 5136 543d 7a9c 063d 8d07 8cbc 3c0e 923c
00000270: a8dc 38bd b541 5bbd 6e07 463d 3fdb 3abd
00000280: e904 8ebc 9ea4 973d 87b7 28bd de10 07bd
00000290: 17c3 82bd a176 143d bdc2 533d a034 76bb
000002a0: 139a a3bd 722a 013d 0b3e cd3c 3d90 19bd
000002b0: afeb a73d 0a9c 4b3d 2f2b c03c f313 ea3c
000002c0: 4aa6 613d 25de 3e3b 1dce ac3d 5a3c 9fbd
000002d0: ce82 113d 96f8 c53b 8f07 c03a 9f50 853d
000002e0: d390 893c 789c fb3c 8a9e 97bc dde4 6bbd
000002f0: 4da6 48bd 7cb3 ae3d ef12 9abd a9b6 19bd
00000300: 4bbe 0e3d ff7d 64bd 5643 9abd 24e9 a4bd
00000310: 6d8e 523d afb1 243d f6f2 773d e1be b73d
00000320: b0eb d93c d4b3 99bd e3b3 843d 27cf 533d
00000330: f040 d63c 34e9 97bd 9f80 823d b827 d33c
00000340: 6092 aa3d b2e3 2ab8 a744 8e3d 2f0b 86b9
00000350: 8468 8abd edef 573d ea90 8fbb 3bf5 9dbd
00000360: b0f8 57bd 0f17 b73d 0f51 a8bb af98 96bc
00000370: 679d 7abd fa12 7abd 9163 83bd 1838 5abd
00000380: 08c0 a83d cf15 2abd 7408 2cbc e91f 163c
00000390: e908 853d d630 91bd 84c2 6a3d f2fc 1b3d
000003a0: e172 19bd 4a3e 6f3d b829 c93c f6d9 83bd
000003b0: 5e3f 4abd 3e5e d0bc 0232 713d 1709 8f3d
000003c0: 37c4 95bc ea17 2cbd 9f44 0c3d 47b4 5a3d
000003d0: 5532 babd 9c3f 553d b549 8b3d e518 68bd
000003e0: 6d73 95bb eff4 943d dad4 553c 17d8 873d
000003f0: bfef 203d 602f 02bd 8b97 923d ee35 8abd

fc2.bias f4 [84]
-0.031718876 0.041834556 0.023814911 0.083939895 -0.018529685 -0.0909769 0.052605435 0.041954
0.079200685 -0.011765354 0.03765214 0.063802645 0.0021883592 -0.034770723 -0.07716229 -0.006744428
-0.059120692 -0.008874197 0.026804063 0.012848499 0.07453081 -0.020149665 -0.048608955 0.07835203
-0.089733995 -0.03623627 0.07514283 -0.08881489 -0.08376839 -0.08435364 -0.08740774 0.049524512
-0.015759103 0.008653015 -0.08267044 0.028143192 0.032217164 0.028381176 -0.046547297 0.07808879
-0.032167543 -0.021606496 -0.017269237 -0.060322955 -0.0034013186 -0.033384483 -0.08294597 0.08382192
0.08141486 0.014047867 -0.082510345 -0.04892108 0.021057615 -0.011655541 -0.01920356 0.00094612624
0.019911103 -0.06351047 0.035639998 -0.016619086 -0.043026894 -0.014307115 -0.02007746 0.0135803865
-0.09097224 -0.087372944 0.04626204 0.030585347 0.051563445 0.017279532 0.029131236 -0.058992174
0.03839257 0.054132193 -0.06903038 -0.03826022 0.08466831 0.08632011 -0.015470343 -0.086036004
-0.04938118 0.06300158 0.069042794 0.042204063
00000000: a7eb 01bd b65a 2b3d 7d17 c33c aee8 ab3d
00000010: 91cb 97bc 1952 babd cc78 573d f5d7 2b3d
00000020: f833 a23d 79c3 40bc 2139 1a3d f6aa 823d
00000030: 936a 0f3b bf6b 0ebd 4307 9ebd 5d00 ddbb
00000040: 8a28 72bd 1465 11bc 3294 db3c 8382 523c
00000050: 9ca3 983d e910 a5bc 2f1a 47bd 0777 a03d
00000060: 75c6 b7bd 7c6c 14bd 7ce4 993d 95e4 b5bd
00000070: c38e abbd 9ac1 acbd d402 b3bd 37da 4a3d
00000080: 3c19 81bc 60c5 0d3c 1f4f a9bd 8d8c e63c
00000090: 25f6 033d a47f e83c 61a8 3ebd 04ed 9f3d
000000a0: 1dc2 03bd 1b00 b1bc 3778 8dbc 3415 77bd
000000b0: a8e8 5ebb 2bbe 08bd 94df a9bd d4aa ab3d
000000c0: d6bc a63d 0629 663c 2ffb a8bd 7861 48bd
000000d0: 0581 ac3c e2f6 3ebc c950 9dbc 7505 783a
000000e0: 9c1c a33c c711 82bd 3ffb 113d c024 88bc
000000f0: f83c 30bd 6468 6abc 7c79 a4bc 4580 5e3c
00000100: a74f babd 96f0 b2bd 447d 3d3d 1f8e fa3c
00000110: 3134 533d ce8d 8d3c a1a4 ee3c c7a1 71bd
00000120: 8741 1d3d b8b9 5d3d cd5f 8dbd c0b6 1cbd
00000130: 9466 ad3d 99c8 b03d 5277 7dbc a533 b0bd
00000140: ec43 4abd f906 813d 4f66 8d3d 2bde 2c3d

fc3.weight f4 [3, 84]
-0.07852083 -0.02827461 0.06975966 -0.089193285 0.09468256 0.021154962 0.024278376 0.096032694
-0.09270779 -0.056760207 -0.048435073 -0.10751534 0.081841856 0.029489486 0.048279315 0.096011944
-0.012008047 0.06955904 -0.07302923 0.07742957 0.10536747 -0.021734871 0.08684803 0.063765146
0.009501064 0.027096443 -0.0046299137 -0.06468124 -0.062296707 -0.09832061 -0.09787352 0.024786461
0.103391744 0.08053417 0.07205545 0.10495322 -0.023882994 0.06946445 -0.030964613 0.097205736
-0.08901069 0.031154511 0.040214527 -0.033134513 -0.0023073412 0.010985166 -0.06348566 0.018127564
0.009853952 -0.049260862 -0.10686729 -0.00054065365 -0.069874376 -0.034862295 -0.02703457 0.034383085
-0.050635822 -0.07979122 -0.10895535 -0.085837275 0.105418876 -0.033021845 0.028514586 0.058252815
0.046096932 0.08549423 0.08206148 -0.04008247 -0.02187433 0.064948194 -0.016312765 0.08698732
-0.011671639 -0.03228687 0.056292586 0.06699055 0.029786821 0.065081894 -0.033904333 -0.05671459
0.0143664135 -0.08495563 -0.093457095 0.06317801 -0.08782225 -0.036996685 -0.10375683 -0.017603092
0.0592896 0.039696142 0.039391275 -0.012461581 -0.09996835 0.017424703 0.1053293 0.052080113
0.09928899 0.089547515 0.028257819 -0.052229743 -0.100901164 0.005676714 0.039981004 0.026581569
0.015464643 0.094473824 0.07906327 0.052829888 -0.107775584 0.06674378 -0.07280697 -0.033878513
-0.020133251 0.07575373 -0.09041078 -0.05970436 0.08127511 0.08509586 -0.056863077 0.0661109
0.03374492 -0.08309943 -0.07147164 -0.06703826 -0.056209564 -0.05083016 -0.046157088 -0.048970003
0.054024395 0.028663697 0.08648742 -0.042879805 0.010111668 0.05789025 0.0944667 -0.05379934
-0.009182033 0.09965964 0.0010231539 0.06120022 0.07954149 -0.07402721 0.018504996 0.06720893
-0.087782435 0.10304018 0.021144219 0.025893183 -0.04411073 0.06439798 0.0141601525 0.028723633
-0.095385924 -0.050513756 0.037579324 0.04476259 0.08382157 -0.022699572 0.05913772 -0.08088307
0.02051681 -0.025151106 -0.09424272 -0.083199866 -0.026737858 -0.06234297 -0.103776 -0.10097266
-0.045726627 -0.108480886 0.088281065 0.073309705 -0.03453104 -0.06237675 0.0077356515 0.095168754
0.07360103 0.077920996 -0.088583514 0.0687504 -0.027698515 0.019694753 -0.102143064 0.010022117
0.055382565 -0.02618477 -0.0017648797 0.10504327 -0.10559525 0.051203728 0.036640104 -0.07590737
-0.060613755 0.02244378 -0.062235326 -0.05927498 0.039658606 0.05351773 -0.00409138 -0.023377798
0.10067296 -0.052126847 -0.042606752 -0.050626263 0.036468156 -0.016167218 0.08104918 -0.070063435
-0.05679851 -0.054483015 -0.013746535 0.04802623 -0.051331364 0.015534411 -0.017591046 0.027801644
-0.07534677 -0.08676284 -0.031419396 0.02803461 -0.062715314 0.039298356 -0.003029557 0.08634433
0.100526005 -0.04685441 0.03216557 -0.08995746 -0.06330343 0.07680909 -0.05776264 -0.0166396
0.051645283 0.105987914 -0.059299145 -0.094902635 0.041542027 0.019822143 0.014805238 -0.051381074
0.034423303 -0.10018774 0.0803791 0.053929172 -0.09762918 -0.04727924 -0.06591959 0.028697085
-0.021313554 0.054626036 -0.04611024 0.04989081
00000000: 87cf a0bd 28a0 e7bc 27de 8e3d f8aa b6bd
00000010: eee8 c13d 2c4d ad3c 72e3 c63c caac c43d
00000020: 95dd bdbd 647d 68bd db63 46bd 0131 dcbd
00000030: b49c a73d ef93 f13c 88c0 453d e9a1 c43d
00000040: 66bd 44bc f874 8e3d 5990 95bd 6593 9e3d
00000050: e6ca d73d 540d b2bc 61dd b13d 4d97 823d
00000060: 5aaa 1b3c 5cf9 dd3c 88b6 97bb 9977 84bd
00000070: d52a 7fbd 515c c9bd e971 c8bd fa0c cb3c
00000080: 0dbf d33d 19ef a43d cf91 933d b7f1 d63d
00000090: 45a6 c3bc 6143 8e3d 80a9 fdbc cd13 c73d
000000a0: 3d4b b6bd bf37 ff3c fdb7 243d 0eb8 07bd
000000b0: c336 17bb 20fb 333c c504 82bd 4280 943c
000000c0: 7872 213c c2c5 49bd 3ddd dabd a7ba 0dba
000000d0: 4c1a 8fbd c4cb 0ebd 9a77 ddbc 47d5 0c3d
000000e0: 8267 4fbd 9469 a3bd fc23 dfbd 74cb afbd
000000f0: dae5 d73d ea41 07bd 6c97 e93c 819a 6e3d
00000100: 23d0 3c3d 9917 af3d d90f a83d 842d 24bd
00000110: cb31 b3bc 8f03 853d 59a2 85bc 6826 b23d
00000120: 673a 3fbc 3d3f 04bd 0e93 663d 5732 893d
00000130: 7e03 f43c a849 853d 45df 0abd 8f4d 68bd
00000140: 1b61 6b3c 38fd adbd 6f66 bfbd 7963 813d
00000150: 27dc b3bd d689 17bd 767e d4bd 5c34 90bc
00000160: a7d9 723d 6c98 223d bf58 213d a92b 4cbc
00000170: 35bc ccbd 40be 8e3c e3b6 d73d f551 553d
00000180: 0758 cb3d b064 b73d f17c e73c dbee 55bd
00000190: 45a5 cebd ba03 ba3b 1fc3 233d 97c1 d93c
000001a0: 6a5f 7d3c 7e7b c13d eceb a13d 2764 583d
000001b0: 72b9 dcbd f7b0 883d d21b 95bd 32c4 0abd
000001c0: 7dee a4bc c624 9b3d 4929 b9bd 8f8c 74bd
000001d0: 9173 a63d bd46 ae3d 42e9 68bd 2765 873d
000001e0: 1d38 0a3d 0930 aabd b95f 92bd 5b4b 89bd
000001f0: 003c 66bd 4933 50bd 370f 3dbd c594 48bd
00000200: af48 5d3d 21d0 ea3c 5120 b13d bca2 2fbd
00000210: 69ab 253c 541e 6d3d c277 c13d b25c 5cbd
00000220: 3d70 16bc 5a1a cc3d 591b 863a 15ad 7a3d
00000230: a6e6 a23d 949b 97bd ca97 973c d6a4 893d
00000240: 47c7 b3bd bb06 d33d a436 ad3c f11d d43c
00000250: 74ad 34bd 17e3 833d fcff 673c d34d eb3c
00000260: b259 c3bd 83e7 4ebd c7ec 193d fa58 373d
00000270: a5aa ab3d 74f4 b9bc 653a 723d 06a6 a5bd
00000280: de12 a83c b109 cebc 5402 c1bd b164 aabd
00000290: 5a09 dbbc 585b 7fbd 8388 d4bd c1ca cebd
000002a0: d84b 3bbd 3a2b debd b4cc b43d 6623 963d
000002b0: 6b70 0dbd c37e 7fbd 597b fd3b d6e7 c23d
000002c0: 23bc 963d 0b95 9f3d 466b b5bd 02cd 8c3d
000002d0: ffe7 e2bc e456 a13c 6230 d1bd ce33 243c
000002e0: d4d8 623d 7181 d6bc 8953 e7ba ed20 d73d
000002f0: 5342 d8bd 00bb 513d ef13 163d 5375 9bbd
00000300: 2146 78bd 05dc b73c 78ea 7ebd 52ca 72bd
00000310: 1071 223d 6835 5b3d fc10 86bb cc82 bfbc
00000320: a02d ce3d f682 55bd 6b84 2ebd 7c5d 4fbd
00000330: a25f 153d 1d71 84bc 1dfd a53d 6b7d 8fbd
00000340: 8ea5 68bd 9529 5fbd 2639 61bc 27b7 443d
00000350: d640 52bd 0b84 7e3c 191b 90bc 46c0 e33c
00000360: 684f 9abd b7b0 b1bd a0b1 00bd d7a8 e53c
00000370: e370 80bd 50f7 203d 888b 46bb 4cd5 b03d
00000380: 94e0 cd3d 69ea 3fbd 0bc0 033d 9e3b b8bd
00000390: 3ba5 81bd 164e 9d3d 8598 6cbd c54f 88bc
000003a0: 018a 533d 3110 d93d a9e3 72bd 505c c2bd
000003b0: f927 2a3d 0c62 a23c ab91 723c f674 52bd
000003c0: 73ff 0c3d 3b2f cdbd cc9d a43d d6e4 5c3d
000003d0: cff1 c7bd e0a7 41bd da00 87bd 2616 eb3c
000003e0: c399 aebc 8dbf 5f3d 17de 3cbd 4e5a 4c3d

fc3.bias f4 [3]
-0.030020371 0.07920612 0.011478722
00000000: 48ed f5bc d136 a23d 4011 3c3c
